FFFFINAL/data.pth (torch, 5887 bytes, 6 tensors)

l1.weight f4 [8, 68]
000000 75 4c 60 3f d9 30 a7 bc f2 5c a6 be bd 12 f3 3e
       0.87616664 -0.020409035 -0.32492787 0.47475234
000010 3c 12 dc be 80 3b 23 3f 8a ca fb bd da 95 d8 3e
       -0.42982662 0.63762665 -0.12294491 0.42301828
000020 92 32 67 be 68 0f ac 3d 58 c9 17 bf 87 d4 e5 3e
       -0.22577885 0.08401376 -0.592916 0.44888708
000030 1e 1f c7 3d 00 13 d1 3d 95 f5 67 3f 4c 6f 61 be
       0.09722732 0.10208702 0.90609103 -0.22015113
000040 71 d0 af be aa f0 ab be eb 78 10 3f b3 34 c7 be
       -0.34338716 -0.3358205 0.56434506 -0.38907394
000050 3e e7 d7 bd ae 58 0f 3f 39 ae 09 bf d5 fa 4e 3f
       -0.10542153 0.5599469 -0.5378147 0.8085149
000060 55 f9 de be 58 2b 3e be 1c 64 36 3f ff 19 39 3f
       -0.435496 -0.18571222 0.71246505 0.7230529
000070 71 da b2 3c 5d 5c 2a 3f 53 df cb 3d fb 32 72 3f
       0.021832677 0.66547185 0.09954705 0.9460904
000080 22 64 e1 bd d9 89 03 3e ea 50 16 be 5f 7e 96 be
       -0.11005427 0.12845553 -0.14679304 -0.29393288
000090 93 61 ff be 4e 0e 8f 3e 4f 99 36 be ea d2 84 3e
       -0.4987913 0.279406 -0.1783192 0.25942165
0000a0 13 23 7e bc dc a2 eb be 3d 21 d5 3d 86 ba 39 3f
       -0.015511292 -0.4602269 0.1040673 0.7255024
0000b0 9c e2 2c be c6 47 5e 3c a8 31 42 3e 1a cd e6 3e
       -0.1688332 0.013566917 0.18964255 0.45078355
0000c0 e9 2a 24 bf 5f 02 77 3e 39 28 11 bf 4c 62 d3 be
       -0.64127976 0.24121998 -0.56702 -0.41285932
0000d0 1c 69 44 be 83 c0 a7 bd 7e 5d da bd 14 12 e7 be
       -0.19180721 -0.081910156 -0.106623635 -0.4513098
0000e0 71 b2 22 be b2 61 e8 bd 13 5a a5 3e 77 b9 1c 3e
       -0.15888382 -0.11346759 0.32295284 0.15305124
0000f0 13 19 f7 3e 2b 97 c4 3e 5a 10 cd be 47 d5 40 3f
       0.48261318 0.38396582 -0.40051538 0.75325435
000100 84 61 31 3e 37 ad d9 3e fe 88 79 bd 06 79 79 3f
       0.17322356 0.42514965 -0.06092166 0.9745029
000110 c3 a2 42 3f c8 c3 b9 3e 37 44 bb bd de 90 10 3f
       0.76029605 0.36282182 -0.0914387 0.5647105
000120 8a 11 b0 3e 3b a4 41 3f df b6 2e 3e e0 40 96 3d
       0.3438838 0.7564122 0.17061947 0.07336593
000130 f2 3e c4 be 64 07 22 3e dc d0 29 bc 1d 83 d6 3e
       -0.38329273 0.15823132 -0.010364737 0.41896906
000140 f2 b0 6e 3e c2 22 3a 3e 73 c5 37 3f ab 3c 44 3d
       0.23309687 0.18177322 0.7178566 0.04790942
000150 ae 31 16 3e 82 c6 3b 3e 13 ef 1e 3f fa 35 15 be
       0.14667389 0.18337443 0.6208355 -0.14571372
000160 6e 8d 25 3f 17 42 a6 3f 67 19 b8 bb b3 c3 32 3f
       0.6466893 1.2988919 -0.0056182626 0.69829863
000170 8b 28 6c bf 6f 51 52 3e 64 0f 52 3f b0 40 50 3f
       -0.92249364 0.20538877 0.82054734 0.81348705
000180 45 fe fb bd d1 e8 b7 3e 82 31 29 3f 18 a5 d8 3e
       -0.123043574 0.35919812 0.6609117 0.42313457
000190 ed a0 6b 3e e0 a1 06 be aa bf 05 3f 53 72 81 be
       0.23010607 -0.13147688 0.5224558 -0.25282535
0001a0 57 a3 a0 3d 0f f3 08 3f 89 23 8f be 9f 9f 7a be
       0.078436546 0.5349588 -0.279568 -0.24474953
0001b0 5f c2 df be 61 54 ad 3e 8b f0 0c 3f 03 e6 56 3f
       -0.4370298 0.33853438 0.5505454 0.8394472
0001c0 e2 0f 0f bf 42 49 7b 3f 39 88 c6 3e cb 62 ef bd
       -0.5588361 0.9815866 0.38775805 -0.11688765
0001d0 8f 1c de be d0 f0 b2 3e 8d 63 5f 3d 6b 1e c4 be
       -0.43381163 0.3494935 0.0545383 -0.38304457
0001e0 b6 bf 8a be b8 e3 e1 3e b1 ee 6a be 8e ff 6a bf
       -0.2709939 0.44119048 -0.22942616 -0.91796196
0001f0 0c 21 e2 3e 04 c1 68 3e 20 cb 5d 3e e2 95 0c 3f
       0.44165838 0.2272988 0.21659517 0.54916203
000200 32 39 cb 3e 66 95 c1 3e de dc 1a bf be be 19 3f
       0.39692074 0.37809294 -0.60493267 0.60056674
000210 9c df ff 3e 4c cb f8 3c 3f 4e f8 bd 5e 5a ca 3e
       0.49975288 0.030370377 -0.12124299 0.3952207
000220 12 69 f2 be 8b 41 54 3f bc 07 dd 3e 5f f7 15 3f
       -0.47345787 0.8291251 0.43169963 0.58580583
000230 75 62 69 3f f1 fb 10 bf 5b 74 d6 3e 43 d4 d7 3e
       0.9116586 -0.5663443 0.41885647 0.4215413
000240 8c 23 12 3f 12 f5 cd 3e 6b 25 e0 bd f4 ef 76 3d
       0.5708549 0.40226036 -0.10944637 0.06028743
000250 bd d8 91 3e 61 e6 e1 3e 0d 62 f4 3d 0e f8 0c bf
       0.2848567 0.44121078 0.11932764 -0.55066
000260 d4 4d 63 3f 82 0f 44 be 8c 90 fb 3d 66 1c 85 be
       0.8879063 -0.19146541 0.122834295 -0.2599823
000270 54 28 3e 3e ca 7b 86 3f 66 3f 0f bd 35 ec 3c bf
       0.18570071 1.0506527 -0.03497257 -0.73797923
000280 e2 ef 62 3f 11 12 9e 3e aa 1a 3a bf 0a e1 1b bf
       0.8864728 0.3087316 -0.72696936 -0.6089026
000290 e8 47 bd bc f5 c0 cd 3d 38 31 10 3f 5e 4d 3c 3d
       -0.023105577 0.10046569 0.563251 0.04597222
0002a0 20 9c 88 3e c9 35 71 bd 30 79 e2 3e 3d d8 f1 bc
       0.26681614 -0.058889184 0.44233084 -0.029522056
0002b0 2b 61 79 bd de cf de 3e f2 0c 63 3e f5 00 19 3f
       -0.060883682 0.43517965 0.22172907 0.59767085
0002c0 22 53 5f 3e 34 d7 55 3f fd 5f ec 3e 88 58 ef be
       0.21809056 0.835315 0.46166983 -0.4674723
0002d0 df 36 bf 3e e1 f9 17 3f db b9 fc 3d 91 f0 f5 3e
       0.3734655 0.5936566 0.123401366 0.480351
0002e0 07 b1 88 3f e4 24 a0 3c a9 c3 4f be c9 97 73 bd
       1.0679024 0.01954884 -0.20289482 -0.059470925
0002f0 3f 00 48 3e 2d 29 35 3f 50 bf b4 be b2 17 92 3f
       0.19531344 0.70765954 -0.3530221 1.1413481
000300 9e 5b 3f 3f d0 11 f9 3e c9 67 44 3d 05 7d e5 3e
       0.7474917 0.48646402 0.04795054 0.44821945
000310 8e 24 15 3e 1e f2 10 bf 2d d1 c0 be f3 47 aa bd
       0.14564726 -0.5661944 -0.37659588 -0.083145045
000320 7b c1 13 bf c0 39 aa 3e 8a 9b 92 bd a5 9d e4 3e
       -0.577171 0.33247185 -0.07158573 0.44651523
000330 bf 2c 01 bf 76 1e 28 3f a7 ac e3 3e 53 5a fc 3e
       -0.504589 0.6567148 0.4446766 0.49287662
000340 2b c6 0e bf 17 d5 0d bf 87 f4 77 be 2d 1a 3d 3f
       -0.5577113 -0.55403274 -0.24214374 0.73868066
000350 a4 27 53 3e 68 ab 99 3d 4c 4e 18 bf dd 4e 45 be
       0.2062059 0.07503396 -0.5949447 -0.19268365
000360 21 4c 6f bd 53 b6 a4 bd 8a fa 85 3f 13 83 91 bd
       -0.05842221 -0.08042588 1.0467083 -0.071050785
000370 df 50 ff be 9c 2b a8 be 1b ab df 39 dd 99 8b 3e
       -0.49866387 -0.3284577 0.00042661358 0.27265826
000380 5f ea ac 3e d8 8f 42 3e 01 d7 27 bf c8 37 cb 3e
       0.3377256 0.19000185 -0.65562445 0.39690995
000390 97 5d b6 3e ea 78 31 be 41 41 02 3f 97 8a e9 3e
       0.35618278 -0.17331281 0.5088082 0.45613548
0003a0 45 2f 9e 3e c4 21 84 3d b9 51 f7 3e 4c d3 21 bf
       0.3089544 0.06451753 0.48304537 -0.6321304
0003b0 fc d6 16 3d 37 23 ae 3e 7e 47 6b 3f 09 fa 4c 3d
       0.03682612 0.34011242 0.91905963 0.05004314
0003c0 fc b0 1c bf 43 8c c2 3e 3f 60 b0 3d 08 2c cb 3e
       -0.61207557 0.37997636 0.086121075 0.3968203
0003d0 5c 8c bb 3e f1 a3 fb be ae 13 af 3e 95 86 bb 3e
       0.36630523 -0.49148515 0.34194702 0.36626115
0003e0 9f 1e 9d 3e c7 2b 25 3f a5 50 d3 3e 65 f2 9f 3d
       0.30687425 0.64519924 0.41272464 0.07809905
0003f0 e3 b4 9d be 3f 61 d2 3d a6 ff 02 bf 57 74 cb 3e
       -0.30802068 0.102724545 -0.5117134 0.39737198

l1.bias f4 [8]
000000 f2 f8 23 3f 22 2f 6b 3f 62 25 3d 3f 76 6f 8d 3f
       0.64051735 0.91868794 0.73885167 1.104964
000010 b6 2b 94 3f 45 6f c2 3e 99 48 50 3f e7 f7 18 3f
       1.157584 0.37975517 0.81360775 0.5975327

l2.weight f4 [8, 8]
000000 98 79 02 3f 90 21 e6 bd bd d4 cd 3f 65 cd 5b 3f
       0.5096679 -0.1123687 1.6080548 0.8586028
000010 a8 74 6a bd 81 b0 a8 3f 45 2d 6d bf 73 c5 65 bd
       -0.05724016 1.3178865 -0.926472 -0.056096505
000020 10 fc 2b 3f cb 9f 6c 3d 62 0a 3a bf 28 6b 5c 3f
       0.6718149 0.057769578 -0.7267209 0.8610101
000030 f1 d0 8e be b3 a9 58 bf 73 cb 37 3f 93 55 64 bf
       -0.27893785 -0.8463394 0.71794814 -0.89193076
000040 79 a2 a0 3f 71 11 aa 3f da 81 8b 3e ed 17 66 bf
       1.2549583 1.3286573 0.27247506 -0.8988026
000050 fb 6f ad 3f bd cf e5 3e 41 61 d5 be 41 8e ad 3f
       1.3549799 0.44885054 -0.4167576 1.3559037
000060 87 fe 30 3f 63 4b df 3e 63 84 98 bf 0a 47 ee 3e
       0.6913838 0.43612203 -1.1915401 0.46538574
000070 b8 21 af be 2d a7 e0 3e 2f 5f bf 3f fb 98 e1 3e
       -0.34205413 0.43877545 1.4950923 0.44062027
000080 d9 7c 6d bf 6a 3d 0b 3f b0 42 7f 3f 42 93 64 3f
       -0.9276863 0.54390585 0.9971113 0.892872
000090 2f d8 ba 3f 5e 73 99 bf 62 ad 10 3f 89 93 25 bf
       1.4597224 -1.1988332 0.5651456 -0.64678246
0000a0 4c da 3c be a6 04 86 be 7f 9b d4 3e cb a7 b9 3e
       -0.18442649 -0.2617542 0.41524884 0.36260828
0000b0 97 85 e0 be 47 af cb 3f 53 00 b3 3f 11 a5 8c 3f
       -0.4385192 1.5912865 1.3984474 1.0987874
0000c0 1d 74 9f 3f 9c 16 ef 3f 90 27 c9 be b8 82 4c 3f
       1.245731 1.8678775 -0.39287996 0.7988696
0000d0 c7 06 08 bf e2 f3 7e bf 0b 33 8d be 1e 19 47 3f
       -0.5313534 -0.99590886 -0.27578005 0.777727
0000e0 b6 9d 7c 3f d9 37 04 3f 15 a6 03 3f 35 51 b4 3f
       0.9867815 0.51647717 0.51425296 1.4087282
0000f0 b3 cf 97 bf 97 c0 1f bd b6 29 27 bf ea 43 5c bf
       -1.186026 -0.039002027 -0.6529802 -0.8604113

l2.bias f4 [8]
000000 84 dd 49 be fa df 9e 3e 87 a4 90 3e ef 4e 45 3e
       -0.19713408 0.31030256 0.28250524 0.19268392
000010 1d 11 4e 3f 0c 1d e3 3d a3 8c d0 3e 28 46 ee 3e
       0.8049486 0.110895246 0.40732297 0.465379

l3.weight f4 [13, 8]
000000 94 91 c6 bf 1d 04 80 bf e9 26 e8 3b b9 b3 02 3f
       -1.5513177 -1.0001255 0.0070847166 0.51055485
000010 ce 49 d0 bf a2 42 5c bd 0d fc a7 3e 7a 14 b9 bf
       -1.6272523 -0.053774484 0.32809487 -1.4459374
000020 9a 99 2a bf 64 1e 9c 3f 42 b3 cd bf 27 21 af be
       -0.6664063 1.2196774 -1.607033 -0.3420498
000030 5d eb 2f 3f b5 9d 6e be b0 25 19 bf 1a 21 22 bf
       0.6871851 -0.23302348 -0.5982313 -0.6333176
000040 e8 96 0a c0 bd 46 f2 bf 01 30 f4 3e 05 f1 c2 be
       -2.1654606 -1.8927838 0.47692874 -0.38074508
000050 bb 62 3d 3f fa 66 0d be 1a de 1d bf 4e d0 54 bf
       0.73978776 -0.13808814 -0.61667025 -0.8313035
000060 01 0c df bf 9a 55 91 3f 25 4b 37 3d 43 fb 73 3d
       -1.7425538 1.1354249 0.044749398 0.059565794
000070 d7 fa d6 be 35 e9 77 bf 61 1a 1e 3f 84 35 27 be
       -0.4198825 -0.9684022 0.61759 -0.16329008
000080 1d 91 eb 3e 90 94 cf bf 95 0d 61 3e 96 72 10 bf
       0.4600915 -1.6217213 0.21977837 -0.56424844
000090 ba 00 1f bf f5 f4 a4 3e 51 ec da bf be 91 88 bf
       -0.62110484 0.32218137 -1.7103368 -1.0669477
0000a0 59 69 00 3e e8 e4 59 3f e3 2d ce be 53 17 54 bf
       0.12540187 0.8511491 -0.40269384 -0.8284809
0000b0 5e b2 85 bf 9a 2b 8a bf 1e e2 9f 3e e3 ed 5a 3f
       -1.0445058 -1.0794556 0.312272 0.85519236
0000c0 d8 8c b6 be ee 27 2c 3f 1a 31 e4 bf 97 13 a2 3e
       -0.3565433 0.6724843 -1.7827485 0.3165557
0000d0 dc d8 81 bf 1f 45 0b 3f e7 23 fa be 5a 32 d8 be
       -1.0144305 0.54402345 -0.48855516 -0.42225915
0000e0 65 4e 5f bc ef 3d ae bf fb 79 ed bd f5 e6 d9 be
       -0.013629531 -1.3612651 -0.115955316 -0.4255902
0000f0 34 4f e3 bf e5 11 d7 3a b6 db 8c 3e fa 92 3d 3e
       -1.7758546 0.0016408531 0.27511376 0.18513098
000100 02 fc 96 be 7a fe e5 bf 65 21 71 3f f7 c3 e0 be
       -0.29489142 -1.7968285 0.9419158 -0.4389951
000110 6d 5e ef bf 7f e7 88 bf 6e f3 89 3e ed 6a 5d bf
       -1.8700691 -1.0695647 0.26943535 -0.8649128
000120 29 4b b9 3d 8b 60 59 bf b6 0b 82 be 9f df f3 bf
       0.09047539 -0.8491294 -0.2539956 -1.9052619
000130 0e b3 c7 3e c5 1c be bf d2 f4 97 3e 46 d1 ac 3e
       0.39003795 -1.485253 0.2967897 0.33753413
000140 51 6f 94 3e 08 cc d5 bf cb 17 35 3e c0 c7 04 c0
       0.28991178 -1.670289 0.17684858 -2.0746918
000150 32 91 8a 3f 7f f7 f1 bf b2 f3 d4 bf 41 1f 45 bf
       1.082556 -1.8903655 -1.663687 -0.77000815
000160 20 db 1d 3f 1f ed 8c bf 74 52 99 bf f2 95 d9 bf
       0.61662483 -1.1009864 -1.1978288 -1.6998885
000170 ff 07 81 bd 39 de 09 3e 7a c3 54 bf b3 01 1f 3f
       -0.06300353 0.13463677 -0.83110774 0.6211197
000180 c8 36 1c 3e 2f 4f c5 bf da 16 f5 3e 36 95 22 c0
       0.15255272 -1.541479 0.47868997 -2.540357
000190 46 13 7f be 37 99 97 bd 10 2e 35 bd 11 76 a2 bf
       -0.24909696 -0.0740227 -0.04423338 -1.2692281

l3.bias f4 [13]
000000 35 29 25 3c a3 71 a8 3e a7 c2 ec 3e cf e5 2c 3c
       0.010080625 0.32899198 0.46242258 0.0105528375
000010 7d 83 a4 be 07 4a 4c be c3 23 54 3d b2 31 5f bc
       -0.32131568 -0.19950114 0.051791918 -0.013622688
000020 f6 3e c0 3c 03 5e eb bd bc 36 89 be f1 41 14 3d
       0.023467522 -0.11492541 -0.26799572 0.0361957
000030 f0 8c be bd
       -0.093042254
